best_model.pth (torch, 181749 bytes, 10 tensors)

conv1.weight f4 [6, 1, 5, 5]
-0.0626775 0.0209095 -0.015227717 0.4205418 0.41711 0.15967943 0.096708335 0.40178522
0.35633788 0.24034655 0.33695257 0.05908281 0.12755765 0.13794549 0.1766639 0.008376007
-0.26634848 -0.49850646 -0.4428001 -0.19385459 -0.45715407 -0.39475328 -0.32374635 -0.16511562
-0.09588481 0.13604657 0.39231908 0.18880181 0.3608267 0.05636437 -0.10554096 -0.40198293
0.2136108 0.5577712 0.52593315 -0.43482146 -0.52988124 -0.05474429 0.43195426 0.05159049
-0.4161438 -0.29449588 0.13749617 0.16406076 -0.35951674 -0.2816075 -0.29117197 0.039143533
-0.07328811 -0.21063547 0.06618687 0.05739145 0.4194125 0.2875399 0.09885791 -0.029514031
0.6151986 0.42435297 0.43507087 0.27611354 0.5139107 0.64149976 -0.0032047965 -0.11168864
0.14283332 0.4078682 -0.034905758 -0.387752 -0.4780959 -0.2223486 -0.37204537 -0.6030112
-0.47692418 -0.43253848 -0.20237947 0.034654632 0.11048309 0.3665524 0.31541085 0.105338
0.52774626 0.15420619 0.025694016 0.32818004 0.4049235 0.05758901 -0.5604525 -0.7109276
-0.17015758 0.26962268 -0.241459 -0.44135782 -0.63962424 -0.2900304 0.3590362 -0.35084218
-0.39019904 -0.29556248 -0.064331055 0.47945383 0.36382055 0.03264058 0.39280465 0.30689394
0.13410173 -0.39940476 -0.34634057 -0.10970814 0.2639449 0.22681193 -0.3340816 -0.52842176
-0.47284913 0.07673349 0.3215129 -0.290482 -0.5998709 -0.5719435 0.26473424 0.35077682
-0.015203817 -0.09860521 0.058666397 0.4935535 0.2890761 -0.28119236 -0.5301453 -0.5393525
-0.27140322 -0.08675565 -0.41978854 -0.055944644 0.4612388 0.17885068 0.17930856 -0.042379834
0.5366721 0.5075858 0.33117163 0.5248923 -0.23461264 0.4013464 0.7034745 0.36399046
0.6881831 -0.30167308 -0.019897263 0.09471735 0.118117526 -0.37058198
00000000: 105d 80bd 664a ab3c ad7d 79bc 4151 d73e
00000010: 718f d53e 0183 233e 050f c63d cbb6 cd3e
00000020: eb71 b63e 681d 763e 0c85 ac3e d100 723d
00000030: 799e 023e 9541 0d3e 62e7 343e 853b 093c
00000040: d45e 88be 3d3c ffbe b2b6 e2be d181 46be
00000050: 1910 eabe 1a1d cabe 15c2 a5be 1214 29be
00000060: 415f c4bd cb4f 0b3e 0cde c83e 4355 413e
00000070: 47be b83e 53de 663d dc25 d8bd b5d0 cdbe
00000080: cabc 5a3e 18ca 0e3f 8ea3 063f eba0 debe
00000090: 4ca6 07bf 8c3b 60bd 1c29 dd3e 8d50 533d
000000a0: cd10 d5be 2ac8 96be cccb 0c3e 8bff 273e
000000b0: 9412 b8be dc2e 90be 7e14 95be f854 203d
000000c0: 1418 96bd d3b0 57be fb8c 873d 4c13 6b3d
000000d0: 3cbd d63e 6e38 933e 0476 ca3d 69c7 f1bc
000000e0: a87d 1d3f cb44 d93e 9cc1 de3e c15e 8d3e
000000f0: a78f 033f 5439 243f 9007 52bb 04bd e4bd
00000100: e642 123e 1ad4 d03e 57f9 0ebd 6e87 c6be
00000110: fcc8 f4be 5aaf 63be bb7c bebe f15e 1abf
00000120: 682f f4be af75 ddbe 903c 4fbe 04f2 0d3d
00000130: f544 e23d c2ac bb3e 887d a13e 73bb d73d
00000140: 611a 073f 3ae8 1d3e 427c d23c 3707 a83e
00000150: 2252 cf3e 74e2 6b3d d179 0fbf 5aff 35bf
00000160: ca3d 2ebe fc0b 8a3e 0741 77be a7f9 e1be
00000170: 6abe 23bf dd7e 94be 98d3 b73e 96a1 b3be
00000180: 2bc8 c7be f753 97be 00c0 83bd f97a f53e
00000190: b046 ba3e 21b2 053d b11d c93e 3421 9d3e
000001a0: f751 093e c87e ccbe 8d53 b1be a9ae e0bd
000001b0: c923 873e 6341 683e be0c abbe a646 07bf
000001c0: 4819 f2be 7326 9d3d 579d a43e 0fba 94be
000001d0: 2491 19bf e46a 12bf 3f8b 873e 0599 b33e
000001e0: 6e19 79bc 87f1 c9bd 2d4c 703d 0bb3 fc3e
000001f0: c801 943e 72f8 8fbe 9ab7 07bf 0113 0abf
00000200: 5df5 8abe f2ac b1bd 86ee d6be 3626 65bd
00000210: 7e27 ec3e a224 373e aa9c 373e 7a96 2dbd
00000220: 5863 093f 25f1 013f 548f a93e 575f 063f
00000230: 4c3e 70be 467d cd3e e816 343f f55c ba3e
00000240: c52c 303f e574 9abe 96ff a2bc 2cfb c13d
00000250: 9ae7 f13d ecbc bdbe

conv1.bias f4 [6]
-0.23567222 0.0785373 -0.0623648 -0.54675996 -0.16141029 0.84227264
00000000: 0f54 71be 2ad8 a03d 3c72 7fbd 76f8 0bbf
00000010: bd48 25be 2e9f 573f

conv2.weight f4 [16, 6, 5, 5]
0.17552845 0.09850449 -0.0012709019 -0.19648167 -0.22695352 0.4085445 0.40068552 0.22793148
0.19896838 -0.08933142 0.15211795 0.34077594 0.65067154 0.8220661 0.87948203 -0.29228103
-0.38138705 -0.4221918 -0.44900593 -0.030123312 -0.53969544 -0.13908038 -0.07184973 -0.15269566
-0.17884386 0.06368184 0.18742558 0.16934994 -0.44613475 -0.36532328 -0.14046305 -0.11538483
-0.12050507 -0.40295178 -0.3510414 0.18454394 0.28872183 0.45480862 0.55009943 0.46225438
0.057751145 -0.045342434 0.0019372873 -0.107818045 0.50706184 -0.0027133708 -0.15842812 -0.09544291
-0.5097935 -0.11090669 0.8913885 0.6610853 0.46718496 0.25880304 0.13181229 0.5813768
0.33354416 0.25872216 0.40677577 0.15371622 0.32942396 0.32093439 0.31372482 0.2993053
0.35282272 -0.16446331 -0.24027735 -0.48337552 -0.6766627 -0.3255825 -0.3303543 -0.24570525
-0.074958846 0.2516328 -0.008410491 -0.09910283 -0.09487509 -0.28677475 -0.21195431 -0.3506121
-0.027278086 -0.19917406 -0.2791186 -0.10911307 -0.44071037 -0.023558315 0.094257504 0.64154464
0.7586203 0.5159591 0.30604953 0.20128639 0.09717678 -0.027371783 0.29519174 -0.12842421
-0.062108416 0.026959805 -0.27017236 -0.1521467 -0.18903434 0.0035652716 -0.004785023 -0.2313427
-0.0454374 -0.07462127 -0.1134915 -0.19428505 0.01578363 -0.102025084 -0.2221125 -0.33056325
-0.12996805 0.3160365 0.30510724 0.40744597 0.28155723 0.29511863 0.31276128 0.17282537
0.17304388 -0.08537834 -0.26184037 -0.33603987 -0.49979532 0.02185111 -0.05863045 0.007820966
-0.04454537 0.12792483 0.009408088 0.055916574 0.11986855 0.12709214 0.34841105 -0.11845167
-0.0405048 -0.33516186 -0.34714648 -0.08365174 -0.26804945 -0.38636193 -0.44024298 -0.4210944
-0.45347953 0.021317815 0.017504778 0.29874235 0.23702532 -0.1090867 0.28690383 0.31941503
0.2539558 -0.0880757 -0.32803744 0.28495458 0.07824401 0.27920592 -0.04032258 -0.23949096
-0.5810854 -0.4245339 0.009075841 -0.03306985 -0.19730595 0.38937178 0.5312678 0.28918782
0.34832785 -0.13096902 0.3741203 0.06097945 -0.040980197 0.10482114 -0.21478117 -0.20604573
-0.0825305 0.048712287 0.29369307 0.061985638 0.05789555 0.16868296 -0.018613674 -0.00013375214
-0.22442836 -0.5051918 -0.5420318 -0.57948244 -0.26590437 -0.34119362 -0.007826293 -0.13677424
0.3663573 0.05967151 0.07834316 0.15782677 0.22286572 0.24455161 0.31598002 0.35478225
0.27848023 0.32326752 0.1481552 0.049583293 0.099921964 0.17976458 0.113208875 0.17350373
0.12172247 0.14933331 -0.45921338 -0.16579743 0.026961604 0.1238524 0.034417354 0.19903703
0.6622705 0.18758072 0.50604284 0.10492882 0.19315103 -0.0057730004 -0.22035691 -0.20916228
-0.23728663 -0.039689537 0.0654238 0.03381013 -0.07201224 -0.025109528 -0.006223345 0.15189037
0.218885 -0.007172676 -0.2371521 -0.41422838 -0.6720205 -0.39503896 -0.16118824 -0.3788917
-0.28894132 0.28641364 0.055721216 0.13976659 -0.058406368 0.63518214 0.6666525 0.394571
0.33180797 0.059852023 -0.006444779 0.017322253 -0.14347483 -0.3598199 -0.09947665 0.11866449
00000000: bbbd 333e b9bc c93d 6494 a6ba 7e32 49be
00000010: 8166 68be bf2c d13e a726 cd3e df66 693e
00000020: 5ebe 4b3e 64f3 b6bd cfc4 1b3e 2f7a ae3e
00000030: 6992 263f ed72 523f bc25 613f dca5 95be
00000040: 2a45 c3be 8629 d8be 1be4 e5be 2ac5 f6bc
00000050: 7b29 0abf 166b 0ebe f425 93bd 405c 1cbe
00000060: d822 37be a06b 823d 7eec 3f3e 126a 2d3e
00000070: c66b e4be a70b bbbe 8cd5 0fbe e24e ecbd
00000080: 5dcb f6bd b24f cebe b3bb b3be 16f9 3c3e
00000090: 59d3 933e addc e83e 51d3 0c3f 9bac ec3e
000000a0: 778c 6c3d fdb8 39bd 93ec fd3a b5cf dcbd
000000b0: cece 013f cfd2 31bb fb3a 22be 9377 c3bd
000000c0: d481 02bf 0c23 e3bd 0932 643f e33c 293f
000000d0: de32 ef3e d581 843e cdf9 063e 1cd5 143f
000000e0: 4dc6 aa3e 3b77 843e ea44 d03e c967 1d3e
000000f0: 42aa a83e 8351 a43e 8aa0 a03e 8b3e 993e
00000100: 2ea5 b43e 1269 28be 440b 76be ff7c f7be
00000110: c439 2dbf c0b2 a6be 3324 a9be 289a 7bbe
00000120: 0684 99bd 04d6 803e 28cc 09bc 6df6 cabd
00000130: df4d c2bd 24d4 92be 8d0a 59be 6e83 b3be
00000140: 4b76 dfbc 49f4 4bbe a2e8 8ebe ac76 dfbd
00000150: caa4 e1be 5efd c0bc 140a c13d 453c 243f
00000160: f134 423f e515 043f 86b2 9c3e 051e 4e3e
00000170: 9f04 c73d ca3a e0bc 5f23 973e a381 03be
00000180: 6565 7ebd cfda dc3c 0854 8abe 58cc 1bbe
00000190: 3892 41be 55a7 693b afcb 9cbb 1ae5 6cbe
000001a0: 911c 3abd 09d3 98bd 3b6e e8bd a9f2 46be
000001b0: ac4c 813c 87f2 d0bd 7671 63be 963f a9be
000001c0: 5816 05be 89cf a13e 0437 9c3e c29c d03e
000001d0: 4528 903e ca19 973e 3f22 a03e 22f9 303e
000001e0: 6a32 313e d7da aebd f10f 86be 6b0d acbe
000001f0: 2ce5 ffbe 1901 b33c 7c26 70bd 8223 003c
00000200: 3575 36bd bafe 023e 6224 1a3c c708 653d
00000210: a47d f53d 7124 023e ef62 b23e ca96 f2bd
00000220: 5ce8 25bd 569a abbe 2fbd b1be 9a51 abbd
00000230: c73d 89be 3bd1 c5be 8767 e1be af99 d7be
00000240: 782e e8be b3a2 ae3c 2e66 8f3c c2f4 983e
00000250: c4b6 723e d968 dfbd 0fe5 923e 5e8a a33e
00000260: 7f06 823e 0861 b4bd 86f4 a7be 91e5 913e
00000270: 653e a03d 14f4 8e3e 4a29 25bd 1e3d 75be
00000280: 03c2 14bf 825c d9be d6b2 143c 4074 07bd
00000290: 920a 4abe bd5b c73e 2b01 083f 6d10 943e
000002a0: 0758 b23e be1c 06be b28c bf3e 96c5 793d
000002b0: dada 27bd 77ac d63d 98ef 5bbe a7fd 52be
000002c0: c005 a9bd 8986 473d f05e 963e a7e4 7d3d
000002d0: e223 6d3d 3abb 2c3e b47b 98bc d13f 0cb9
000002e0: 8cd0 65be 4054 01bf 99c2 0abf f658 14bf
000002f0: 9e24 88be eeb0 aebe da39 00bc 8c0e 0cbe
00000300: 2f93 bb3e 1d6a 743d 6172 a03d 579d 213e
00000310: e936 643e bd6b 7a3e 22c8 a13e 05a6 b53e
00000320: f694 8e3e 5283 a53e ffb5 173e da17 4b3d
00000330: e3a3 cc3d 3514 383e 0eda e73d f6aa 313e
00000340: a149 f93d d5ea 183e 041e ebbe cdc6 29be
00000350: 95de dc3c 54a6 fd3d 36f9 0c3d 5dd0 4b3e
00000360: 8f8a 293f 2915 403e 068c 013f ece4 d63d
00000370: 62c9 453e 702b bdbb 3ea5 61be a32e 56be
00000380: 44fb 72be 7f91 22bd eafc 853d 7e7c 0a3d
00000390: 277b 93bd 7fb2 cdbc 34ed cbbb 2689 1b3e
000003a0: 6423 603e c408 ebbb 00d8 72be be15 d4be
000003b0: 8909 2cbf 8c42 cabe 880e 25be 18fe c1be
000003c0: 1ef0 93be cfa4 923e ee3b 643d f91e 0f3e
000003d0: 843b 6fbd 4c9b 223f bda9 2a3f 3605 ca3e
000003e0: bce2 a93e 6527 753d ba2e d3bb 66e7 8d3c
000003f0: 11eb 12be 503a b8be 6aba cbbd 5e06 f33d

conv2.bias f4 [16]
-0.2180153 -0.099227905 -0.06367564 -0.22123834 0.45481446 -0.31059682 0.506018 -0.0019318055
-0.051715717 0.09943321 0.3904607 0.21107239 -0.11426532 -0.096487544 0.099823326 0.40432945
00000000: 673f 5fbe 0038 cbbd 6068 82bd 4e8c 62be
00000010: 71dd e83e 8c06 9fbe 658a 013f a334 fdba
00000020: dcd3 53bd a4a3 cb3d 77ea c73e 5c23 583e
00000030: f003 eabd 439b c5bd 2c70 cc3d 4504 cf3e

fc1.weight f4 [120, 256]
0.4080086 0.5128551 0.43327162 0.014069111 -0.018991752 0.19756661 0.5349587 0.045556523
-0.12585221 0.4771287 0.1648363 0.17043649 -0.380277 -0.63714457 -0.32230666 0.11326159
-0.13286838 -0.15308283 0.19497015 -0.018340055 -0.017293219 0.03240601 0.29565427 -0.1246826
0.08970911 6.9775415e-06 -0.27561876 0.131709 0.19000535 0.07141784 0.16012542 0.18465346
0.05843067 -0.3011515 0.2659204 0.4959091 -0.28186002 -0.14994669 -0.670255 -0.24503565
0.021700267 -0.2689914 -0.082180634 0.2039044 0.08783707 -0.28426814 0.031377804 -0.080414414
-0.0029396885 -0.015929915 -0.3491079 0.22172421 -0.33800915 0.21280985 -0.13648985 0.15902832
-0.35812917 0.07010325 -0.5913559 0.14251108 -0.07584799 0.31997377 0.007193964 -0.0022664983
-0.20863226 -0.3023543 0.106430426 0.048841983 0.081704125 -0.056294736 -0.20056497 0.50829905
-0.04232864 -0.29271647 0.29728466 0.0024276585 0.40330327 0.11015348 0.11811539 -0.31415534
-0.13148765 0.010649828 -0.10212921 -0.14045802 -0.41637033 -0.10257814 -0.08000076 -0.13920905
-0.3458012 0.020865135 -0.3048785 -0.39534342 0.12670732 0.29359987 -0.40132242 0.09065676
0.77083266 0.41406697 0.12727375 -0.6923534 0.25292084 -0.09855592 0.14344096 -0.022484498
0.12961276 0.16280803 0.3355938 0.3795277 0.30173942 0.12354511 0.12974274 -0.02281993
0.5649746 -0.2785092 0.14892228 0.1025617 0.40515476 -0.12991211 0.013360013 0.012625422
0.09964942 -0.31007954 -0.008813296 0.04192436 0.115743004 -0.24976104 -0.21799773 -0.095475204
-0.62037945 -0.1567581 -0.030219702 0.022790594 -0.1881966 -0.31527352 -0.5256793 -0.26715952
0.08208186 -0.12995195 -0.37973613 -0.03279922 0.4039819 -0.12959236 -0.1758344 0.04321749
-0.3075435 -0.06811789 -0.3870232 0.17454226 -0.44193646 0.11962873 -0.35007012 0.01102055
-0.5082632 -0.1888791 -0.20849654 -0.4123344 -0.030387329 0.14016005 0.08832699 -0.041069515
0.07379084 -0.083932176 0.056053307 0.12749347 0.10362072 0.31504783 0.13865715 0.18351483
0.18173829 0.017060647 -0.10507448 0.15644301 0.07078693 -0.00033656124 0.0486422 -0.08889434
-0.30476195 0.34016135 0.033206385 -0.36211002 -0.1558181 -0.19174783 -0.10934915 -0.54431283
0.27016553 0.041084714 -0.2127218 0.45564818 -0.02669837 -0.10658378 -0.0026312447 0.24292752
-0.18108608 -0.083764434 -0.050103616 -0.09063882 -0.1927695 -0.18537462 0.11709899 -0.00034970933
-0.24734128 -0.05664279 -0.14123522 0.07348732 -0.21142553 -0.26655492 -0.2917544 -0.15863122
-0.34458697 -0.37850899 -0.12435209 0.13558303 -0.16865386 0.1154668 0.37063494 0.1858016
0.10638453 -0.09506126 0.31270874 0.019318443 -0.20129684 -0.020504886 -0.06517643 -0.08215492
-0.32423168 0.26080713 0.45493016 0.4272886 0.20215352 0.5714549 -0.015055123 0.1964207
0.118591875 0.2635392 0.23989944 0.1663872 -0.34954703 -0.17978033 -0.262081 -0.43304133
0.83628464 0.31818867 0.20142587 -0.3628916 0.5881787 -0.25898647 -0.16849855 0.053650014
-0.10730362 -0.16769378 -0.25232238 0.13583523 -0.18575494 0.01620189 -0.037819207 -0.057686273
00000000: 81e6 d03e 794a 033f c7d5 dd3e 2182 663c
00000010: 9794 9bbc e74e 4a3e 0ef3 083f 7a99 3a3d
00000020: 67df 00be 374a f43e d9ca 283e e786 2e3e
00000030: abb3 c2be e81b 23bf 6105 a5be b1f5 e73d
00000040: a60e 08be bfc1 1cbe 41a6 473e e23d 96bc
00000050: 82aa 8dbc 2abc 043d ff5f 973e 9759 ffbd
00000060: 69b9 b73d a020 ea36 e71d 8dbe b9de 063e
00000070: c390 423e 8443 923d ebf7 233e cc15 3d3e
00000080: 0055 6f3d 8830 9abe b826 883e cce7 fd3e
00000090: f54f 90be a08b 19be d595 2bbf a0ea 7abe
000000a0: c2c4 b13c 3eb9 89be 524e a8bd 51cc 503e
000000b0: ece3 b33d 988b 91be 0386 003d 50b0 a4bd
000000c0: caa7 40bb 747f 82bc 45be b2be ac0b 633e
000000d0: 890f adbe d3ea 593e ffc3 0bbe 52d8 223e
000000e0: b55c b7be 4b92 8f3d 1a63 17bf 6dee 113e
000000f0: 3156 9bbd 9ad3 a33e 58bb eb3b 8889 14bb
00000100: b2a3 55be 2fce 9abe 32f8 d93d 880e 483d
00000110: 7e54 a73d 4f95 66bd e760 4dbe e31f 023f
00000120: cc60 2dbd efde 95be b235 983e 5a19 1f3b
00000130: c47d ce3e 2698 e13d 7be6 f13d f8d8 a0be
00000140: b3a4 06be 9e7c 2e3c 1f29 d1bd 3ad4 0fbe
00000150: 7e2e d5be 7d14 d2bd 70d7 a3bd d18c 0ebe
00000160: db0c b1be 5ced aa3c 0919 9cbe 746a cabe
00000170: 90bf 013e b952 963e 227a cdbe 40aa b93d
00000180: 4a55 453f 9600 d43e 0d54 023e 133e 31bf
00000190: d77e 813e b0d7 c9bd 30e2 123e 6931 b8bc
000001a0: 35b9 043e 26b7 263e f3d2 ab3e 7451 c23e
000001b0: 977d 9a3e 3805 fd3d 48db 043e ddf0 babc
000001c0: 2da2 103f c298 8ebe 157f 183e de0b d23d
000001d0: 7270 cf3e ae07 05be f5e3 5a3c dcda 4e3c
000001e0: ff14 cc3d bfc2 9ebe a565 10bc e1b8 2b3d
000001f0: ab0a ed3d 5cc1 7fbe cc3a 5fbe 8188 c3bd
00000200: 30d1 1ebf 3285 20be 4f8f f7bc 57b3 ba3c
00000210: 9cb6 40be 886b a1be eb92 06bf 22c9 88be
00000220: 891a a83d 2012 05be c66c c2be 7a58 06bd
00000230: b7d6 ce3e dcb3 04be ef0d 34be d304 313d
00000240: 5776 9dbe 6481 8bbd e827 c6be 35bb 323e
00000250: 7f45 e2be e8ff f43d 643c b3be 898f 343c
00000260: 891d 02bf 8669 41be 1e80 55be 7f1d d3be
00000270: d9ee f8bc 1e86 0f3e c8e4 b43d 8238 28bd
00000280: a71f 973d a2e4 abbd 2798 653d a68d 023e
00000290: 1a37 d43d f34d a13e 24fc 0d3e 50eb 3b3e
000002a0: 9a19 3a3e c5c2 8b3c 4a31 d7bd 9932 203e
000002b0: bdf8 903d 7c74 b0b9 0b3d 473d 3c0e b6bd
000002c0: c209 9cbe a129 ae3e 6b03 083d 7c66 b9be
000002d0: c88e 1fbe 8b59 44be 72f2 dfbd 1658 0bbf
000002e0: 2353 8a3e 7248 283d bed3 59be b84a e93e
000002f0: 8ab6 dabc 9948 dabd f670 2cbb fec1 783e
00000300: a16e 39be b08c abbd 7339 4dbd d8a0 b9bd
00000310: 5e65 45be d8d2 3dbe 98d1 ef3d 3159 b7b9
00000320: 0847 7dbe 4502 68bd f79f 10be 8580 963d
00000330: ef7f 58be e379 88be d560 95be 3970 22be
00000340: b46d b0be eecb c1be 4fac febd 47d6 0a3e
00000350: 99b3 2cbe dc79 ec3d ddc3 bd3e c642 3e3e
00000360: 22e0 d93d 7aaf c2bd 5c1b a03e b641 9e3c
00000370: c220 4ebe ddf9 a7bc 387b 85bd d740 a8bd
00000380: b201 a6be 8388 853e 9bec e83e 92c5 da3e
00000390: 5501 4f3e de4a 123f c3a9 76bc 8222 493e
000003a0: 4ce0 f23d 9cee 863e 33a8 753e 6861 2a3e
000003b0: d4f7 b2be 5618 38be 7b2f 86be 98b7 ddbe
000003c0: c016 563f a0e9 a23e 9542 4e3e eecc b9be
000003d0: e192 163f e099 84be e28a 2cbe 1ec0 5b3d
000003e0: 00c2 dbbd ebb7 2bbe 6630 81be 6418 0b3e
000003f0: 8b36 3ebe d3b9 843c 50e8 1abd 7148 6cbd

fc1.bias f4 [120]
0.21323617 -0.083989106 0.101391844 -0.20973472 0.0071052723 0.19170728 -0.14256293 0.16812798
-0.0925262 -0.16686773 -0.19152485 -0.14529094 0.08353368 -0.14228268 0.27326104 0.050704956
-0.0829932 0.1757739 -0.09714495 0.20677938 0.20452438 0.054158404 0.047816552 0.15340772
-0.10667795 0.028398568 -0.09099053 -0.10694994 0.11382013 0.013822614 0.13849296 -0.22764044
-0.035549052 0.028376268 0.12970006 -0.23218891 0.047626503 -0.11754579 0.121546045 0.11774671
-0.219014 -0.28860098 0.006328063 0.07515638 0.020752376 0.20118538 0.19795802 0.018401587
-0.04950822 -0.0427977 -0.044746656 0.08778939 0.3892347 0.1204633 0.067991845 0.1489829
-0.027134718 0.041622784 0.1504406 -0.13320312 -0.065242775 0.14690349 0.10098206 0.1481309
0.22610438 0.095920645 -0.3525194 0.16222137 0.086355954 0.10188867 0.014252988 0.21511103
-0.07067743 0.100880384 -0.1667271 -0.024077954 -0.19679567 -0.042871945 0.18360224 0.2684592
-0.11709232 -0.20795481 -0.19075623 -0.22880001 -0.122695036 -0.15072714 -0.18960996 0.122856855
-0.10545976 -0.20136373 -0.24044485 -0.049215317 -0.015167373 -0.042954013 -0.019920275 -0.18912224
-0.26597932 -0.022667043 0.057675347 0.16478156 0.1132566 -0.049546793 -0.19142337 -0.1323507
0.22043478 0.33018932 -0.09119326 -0.067627534 -0.13060133 -0.14257109 -0.25216603 0.07041968
0.05132049 -0.109025165 -0.3647826 0.061556302 0.104094796 -0.03963577 -0.1990141 0.07595921
00000000: 955a 5a3e 7b02 acbd 87a6 cf3d b3c4 56be
00000010: 58d3 e83b ea4e 443e 04fc 11be be29 2c3e
00000020: 607e bdbd 60df 2abe 171f 44be 26c7 14be
00000030: b513 ab3d 8db2 11be dfe8 8b3e 00b0 4f3d
00000040: 57f8 a9bd 13fe 333e eef3 c6bd f9bd 533e
00000050: d76e 513e 34d5 5d3d 4adb 433d ea16 1d3e
00000060: f879 dabd 1da4 e83c 3e59 babd 9208 dbbd
00000070: 871a e93d 3f78 623c 19d1 0d3e 931a 69be
00000080: e29b 11bd 5975 e83c 18d0 043e eec2 6dbe
00000090: 0214 433d d9bb f0bd 22ed f83d 3025 f13d
000000a0: 3545 60be 82c3 93be a45b cf3b 97eb 993d
000000b0: e300 aa3c 8a03 4e3e 82b5 4a3e edbe 963c
000000c0: 22c9 4abd a44c 2fbd 4548 37bd ecca b33d
000000d0: c549 c73e 76b5 f63d 4f3f 8b3d f98e 183e
000000e0: a149 debc a77c 2a3d 1a0d 1a3e 6666 08be
000000f0: 019e 85bd de6d 163e afcf ce3d a0af 173e
00000100: e887 673e 0b72 c43d 6c7d b4be 5c1d 263e
00000110: 64db b03d 02ab d03d 5d85 693c 1146 5c3e
00000120: 54bf 90bd 609a ce3d 82ba 2abe 213f c5bc
00000130: ce84 49be 7e9a 2fbd 3a02 3c3e 7c73 893e
00000140: 19ce efbd 1bf2 54be 9a55 43be 8d4a 6abe
00000150: 8947 fbbd 3758 1abe 1d29 42be 609c fb3d
00000160: 49fb d7bd 4b32 4ebe 2d37 76be 0096 49bd
00000170: 9380 78bc 8cf0 2fbd d82f a3bc 43a9 41be
00000180: 712e 88be 3cb0 b9bc fc3c 6c3d 7fbc 283e
00000190: 14f3 e73d 94f1 4abd 7d04 44be f186 07be
000001a0: a8b9 613e 930e a93e 88c3 babd 4e80 8abd
000001b0: 5bbc 05be 28fe 11be e81b 81be 3138 903d
000001c0: 6f35 523d 9648 dfbd c9c4 babe 7622 7c3d
000001d0: a72f d53d 1e59 22bd 5aca 4bbe 8190 9b3d

fc2.weight f4 [84, 120]
-0.19832638 -0.06781269 0.9369221 0.09840611 -0.27593338 0.019969882 -0.33522525 -0.13420638
0.0038852156 0.115460984 -0.4806794 0.44180888 -0.3576104 0.041330256 -0.374206 -0.16367261
0.288092 -0.124876015 -0.27950388 0.22726306 -0.07476734 0.36605608 -0.07243583 0.4519227
0.010745337 0.038565688 0.20072931 0.33362514 0.41733873 -0.5658314 -0.24238676 -0.16802284
0.17005536 -0.3866717 0.17746986 0.33774573 0.27037367 -0.19802867 0.45393124 -0.206983
-0.13853689 -0.55763996 -0.3020162 -0.1565875 0.030772282 -0.35198784 0.41772515 0.069933936
-0.09786504 -0.05412392 -0.67431223 -0.19732663 -0.011846321 -0.4502297 -0.40020907 0.4104417
0.39427823 -0.23426306 -0.029332612 -0.5294034 -0.14702767 -0.30122346 -0.4138021 -0.13060439
0.43831912 0.06683623 -0.65142196 0.1412317 0.015259803 -0.06673823 -0.09868939 -0.25835088
-0.4495469 0.18456085 -0.40496424 -0.41897085 -0.062585525 -0.21126296 -0.011079366 0.33804023
-0.6181445 -0.16349216 0.06994291 -0.16600911 -0.36210948 0.057984073 0.13722946 -0.022425354
-0.17784682 -0.5292445 0.14201446 0.118000574 0.44530407 -0.44506943 0.43709406 0.04115014
0.16181815 -0.058789723 -0.1816162 0.0054325066 -0.17335446 0.1812443 -0.11776343 0.19747822
-0.33243573 0.07369224 -0.34125605 0.028418897 -0.16179825 -0.22343852 -0.06392076 0.27518013
0.5867552 -0.55507666 -0.47949347 0.17095193 0.365184 0.18646996 -0.1892276 0.22790231
0.054211874 -0.09259299 0.2299826 0.57896215 -0.057516813 0.33942503 0.41960818 -0.31818753
-0.9126303 0.05005085 0.2252029 0.04353927 -0.26039907 -0.38928583 -0.07843039 0.17158823
0.12275018 -0.33682793 -0.2772307 0.4526422 0.42956343 -0.22397642 0.16088387 -0.31541806
-0.29370514 -0.41128695 -0.0028224336 -0.040231977 0.117032856 -0.110968605 -0.1220991 0.13293675
-0.25918725 0.44598287 -0.41251168 0.16763139 -0.30794916 -0.40107176 -0.11064353 -0.038464524
0.0115513075 0.29029605 0.1783068 0.22166699 0.13524975 0.15448335 -0.071425796 0.6046051
-0.22504272 0.19749185 0.09105602 0.2297975 0.16894437 0.15545113 -0.19736385 -0.17065232
0.108228266 0.14047295 -0.1631393 -0.22629237 -0.110996254 -0.38921967 -0.096704386 0.2445028
-0.4697574 -0.34830278 0.0026676098 -0.3314342 -0.030309178 -0.36619157 -0.2596183 0.17637067
0.13884081 -0.12942432 0.21588096 0.4320776 -0.31163478 -0.23362908 0.7146008 -0.40418184
-0.24331196 0.06905656 -0.46327236 0.0015349467 0.28312156 -0.5560008 -0.062500365 -0.59892255
-0.2479976 -0.22765394 -0.14205708 0.28885508 -0.33739996 -0.030418342 0.07735241 0.3254838
0.15246904 -0.18314928 -0.073981814 -0.033016637 -0.06555791 0.08134293 -0.16948478 -0.036817763
-0.22883806 -0.01677701 0.08781237 0.26835686 0.19876204 0.7143623 0.20076759 0.2178347
0.17243393 0.25435624 -0.35661298 0.0356291 0.08304795 -0.31870165 0.16600181 0.12386708
-0.18656725 0.14761682 -0.31193435 -0.016657421 -0.070695505 0.24700744 0.078760654 0.16222112
0.08888974 -0.3824504 0.07272856 -0.11404844 -0.11010658 0.18449873 0.3483486 0.5836012
00000000: 1216 4bbe 61e1 8abd 20da 6f3f 2589 c93d
00000010: 2447 8dbe e197 a33c a5a2 abbe 666d 09be
00000020: 1a9f 7e3b cf76 ec3d 9c1b f6be c634 e23e
00000030: b618 b7be ea49 293d ee97 bfbe cb99 27be
00000040: cb80 933e ffbe ffbd 221b 8fbe a6b7 683e
00000050: 9f1f 99bd b46b bb3e 3d59 94bd 6a62 e73e
00000060: 360d 303c 0ef7 1d3d fc8b 4d3e ead0 aa3e
00000070: 6cad d53e 54da 10bf 3c34 78be 2e0e 2cbe
00000080: fe22 2e3e d5f9 c5be a9ba 353e 02ed ac3e
00000090: 6b6e 8a3e 07c8 4abe ad69 e83e 5af3 53be
000000a0: 9ddc 0dbe 7ec1 0ebf dea1 9abe 7958 20be
000000b0: 2716 fc3c c037 b4be 12e0 d53e 8639 8f3d
000000c0: 776d c8bd 0bb1 5dbd ba9f 2cbf fe0f 4abe
000000d0: 1217 42bc 8284 e6be 34e8 ccbe 6a25 d23e
000000e0: d6de c93e a8e2 6fbe f24a f0bc fb86 07bf
000000f0: 6c8e 16be f639 9abe dedd d3be 28bd 05be
00000100: 5d6b e03e 6fe1 883d 97c3 26bf 0b9f 103e
00000110: 4104 7a3c 0eae 88bd aa1d cabd 9146 84be
00000120: 032b e6be 85fd 3c3e 7957 cfbe 5983 d6be
00000130: d72c 80bd 5155 58be 3b86 35bc 9c13 ad3e
00000140: b83e 1ebf 7d6a 27be 3a3e 8f3d 4bfe 29be
00000150: 6a66 b9be b580 6d3d e185 0c3e 60b5 b7bc
00000160: 7a1d 36be 917c 07bf 3d6c 113e 49aa f13d
00000170: e5fe e33e 24e0 e3be cbca df3e 0d8d 283d
00000180: a8b3 253e 7ecd 70bd 99f9 39be 2b03 b23b
00000190: d583 31be 1b98 393e f42d f1bd bb37 4a3e
000001a0: 0435 aabe f5eb 963d 1db9 aebe bfce e83c
000001b0: 71ae 25be 11cd 64be e3e8 82bd 69e4 8c3e
000001c0: 9735 163f 8119 0ebf 2b80 f5be 060e 2f3e
000001d0: 66f9 ba3e fbf1 3e3e e1c4 41be 395f 693e
000001e0: 450d 5e3d 65a1 bdbd 8f80 6b3e dd36 143f
000001f0: c096 6bbd 1ec9 ad3e e2d6 d63e 7ae9 a2be
00000200: 24a2 69bf 1f02 4d3d 979b 663e 3c56 323d
00000210: 0753 85be 7950 c7be 1da0 a0bd d3b4 2f3e
00000220: 7264 fb3d b674 acbe 2ff1 8dbe b8c0 e73e
00000230: bdef db3e 135a 65be bebe 243e 7a7e a1be
00000240: 8560 96be 3494 d2be 94f8 38bb 49ca 24bd
00000250: ecae ef3d 8243 e3bd 180f fabd 9220 083e
00000260: 31b4 84be de57 e43e bb34 d3be 90a7 2b3e
00000270: 83ab 9dbe 4759 cdbe 1399 e2bd fa8c 1dbd
00000280: b241 3d3c afa1 943e 0f96 363e acfc 623e
00000290: e97e 0a3e e230 1e3e b047 92bd 66c7 1a3f
000002a0: 9971 66be 4e3b 4a3e 947b ba3d 0950 6b3e
000002b0: c1ff 2c3e 952e 1f3e c019 4abe 7bbf 2ebe
000002c0: c8a6 dd3d 24d8 0f3e fd0d 27be 30b9 67be
000002d0: 0152 e3bd cd47 c7be f30c c6bd f15e 7a3e
000002e0: 0b84 f0be be54 b2be 11d3 2e3b beb1 a9be
000002f0: f44a f8bc 767d bbbe b1ec 84be 839a 343e
00000300: 492c 0e3e cf87 04be e60f 5d3e 4639 dd3e
00000310: 988e 9fbe 763c 6fbe 14f0 363f ecf0 cebe
00000320: c526 79be 876d 8d3d 0932 edbe 4430 c93a
00000330: 4ff5 903e 1256 0ebf 3100 80bd fd52 19bf
00000340: 15f3 7dbe 1d1e 69be 6977 11be d0e4 933e
00000350: b0bf acbe e32f f9bc f16a 9e3d d0a5 a63e
00000360: d820 1c3e 7c8b 3bbe c783 97bd 743c 07bd
00000370: 3a43 86bd 1f97 a63d 6b8d 2dbe 39ce 16bd
00000380: 8654 6abe f16f 89bc f9d6 b33d 1266 893e
00000390: 4788 4b3e 73e0 363f 0596 4d3e 0f10 5f3e
000003a0: 8592 303e fb3a 823e fa95 b6be d2ef 113d
000003b0: 0b15 aa3d dd2c a3be 61fc 293e 06ae fd3d
000003c0: 7c0b 3fbe dd28 173e dcb5 9fbe 2575 88bc
000003d0: cec8 90bd 85ef 7c3e 444d a13d 4b1d 263e
000003e0: d30b b63d 8ad0 c3be b6f2 943d 3a92 e9bd
000003f0: 8f7f e1bd 3ced 3c3e bf5a b23e e366 153f

fc2.bias f4 [84]
-0.11594107 0.060862776 -0.022268813 -0.42783904 -0.4043636 -0.042901345 -0.35830456 0.16062112
-0.46298873 -0.295038 0.039370097 0.119778216 0.20863655 -0.0815949 0.31936783 0.07332764
0.30500054 -0.055203818 -0.081292294 0.12946686 0.0095464215 -0.5817561 -0.042070046 0.2933036
-0.12805606 -0.45067054 0.10504782 -0.26518562 -0.04201818 0.28307316 0.23402101 0.4652421
0.045931004 -0.326328 -0.07508311 -0.30266297 0.24582374 0.16216113 0.39475554 0.48682454
0.17993276 0.36600512 -0.6193155 -0.03545765 0.095768146 -0.051541004 -0.30556366 -0.0557807
-0.20864947 -0.15252902 0.0143768005 -0.32190165 -0.10318723 0.0998388 -0.03954351 0.11657594
0.044963486 0.15549155 -0.047688108 0.34854057 -0.36159062 -0.029862784 -0.035605196 -0.1174338
0.09486555 -0.017340017 0.11285696 -0.08780533 0.50018513 -0.44644356 0.11319075 -0.018088033
0.2856692 0.44907814 -0.47584835 -0.45601615 0.05564927 -0.0920627 0.09714784 0.05880039
-0.2961979 0.056531593 0.036014296 0.269292
00000000: 8372 edbd 3f4b 793d 166d b6bc b80d dbbe
00000010: bf08 cfbe 52b9 2fbd b273 b7be dd79 243e
00000020: dc0c edbe 390f 97be 8a42 213d 484e f53d
00000030: d2a4 553e 3a1b a7bd 2e84 a33e cd2c 963d
00000040: 0829 9c3e 661d 62bd 937c a6bd f692 043e
00000050: 9868 1c3c f8ed 14bf a451 2cbd e42b 963e
00000060: 2121 03be 4abe e6be 5023 d73d 69c6 87be
00000070: 411b 2cbd f7ee 903e 34a3 6f3e 3634 ee3e
00000080: 2622 3c3d 7714 a7be 2cc5 99bd a4f6 9abe
00000090: 38b9 7b3e 910d 263e 661d ca3e 1141 f93e
000000a0: 4b40 383e 0665 bb3e 768b 1ebf 0a3c 11bd
000000b0: 1722 c43d a91c 53bd d772 9cbe 4e7a 64bd
000000c0: 35a8 55be 9130 1cbe ac8c 6b3c 4bd0 a4be
000000d0: d453 d3bd 4978 cc3d 60f8 21bd 5ebf ee3d
000000e0: a22b 383d 2d39 1f3e 9b54 43bd e973 b23e
000000f0: 6822 b9be cca2 f4bc c1d6 11bd 2281 f0bd
00000100: df48 c23d a70c 8ebc 8d21 e73d 48d3 b3bd
00000110: 220c 003f 4094 e4be 8dd0 e73d 5b2d 94bc
00000120: 3c43 923e 92ed e53e 65a2 f3be f37a e9be
00000130: 7df0 633d 5e8b bcbd 72f5 c63d aed8 703d
00000140: 40a7 97be ac8d 673d ba83 133d a4e0 893e

fc3.weight f4 [10, 84]
-0.26474965 0.0074450416 -0.088857524 0.028575141 0.1814254 0.34942743 0.65911674 -0.5751495
0.7285443 0.2679043 0.15765843 0.119577244 0.53167456 0.71371573 -0.297246 0.11769822
-0.29849097 0.47427213 0.21133043 -1.1016177 0.46102813 0.74769986 0.57049984 0.32543325
-0.017345676 -0.29606888 -0.10908292 -0.4484953 -0.4475305 -0.5738163 -0.007768896 -0.5773738
-0.47691607 0.6784698 0.58691216 -0.08732484 0.2176792 0.5660652 -0.8044863 -0.71003777
0.3923279 0.1468349 0.8322167 0.56456256 -0.07378469 -0.08419555 0.7841261 -0.39123192
0.2674015 -0.4115458 -0.71727264 0.35036734 0.34434175 0.39620632 0.6113017 -0.42914462
-1.1309096 0.49295267 -0.26429805 0.64154905 0.4814455 -0.34951806 -0.03942232 -0.13462147
-0.5602116 -0.5798162 0.60758 0.13612139 -0.32887176 0.64239776 0.6755816 -0.5351879
-0.5691604 -0.60653305 0.6993895 0.7550997 0.22438999 0.54181355 -1.1468458 0.4500937
-0.3370336 0.16475682 -0.65024126 0.3743217 0.60886925 -0.43109322 0.5635252 -0.44059646
0.47227472 -0.4048626 0.45871136 0.4865654 0.5240346 0.40657437 -0.7349398 -0.43665794
0.47589 -0.22139296 -0.15442371 -0.15625064 -0.11442352 0.46032313 -0.67138827 -0.6281861
-0.50199187 0.59152776 -0.25361726 -0.5383488 0.1971403 -0.20869878 -0.33755702 -0.68079036
1.0281656 -0.049479123 0.75129145 -0.55609614 0.6736249 0.40109313 0.11048059 -0.31901026
0.42324075 0.40597826 -0.2627226 -0.42828655 -0.4417232 0.34619448 0.48608816 -0.16925295
0.5319824 -0.0834771 0.112126134 -0.5341891 0.40930492 0.34630835 0.1649394 0.47213593
-0.20778383 0.41582474 -0.41987726 -0.41150257 -0.30986467 -0.13693412 -0.124138616 -0.18650295
0.603956 0.7200297 0.88390625 0.29906523 -0.7856534 0.4387623 -0.63211006 0.4234264
-0.46392187 0.5579146 -0.18041797 -0.6635335 -0.56826705 -0.578344 0.58131886 0.49569052
-0.35919 -0.44604418 0.38326064 0.4776083 0.46770057 -0.4597691 -0.1211943 -0.5345637
-0.71020526 -0.41015992 -0.17631114 -0.5734713 1.1275957 -0.008844002 0.5201671 -0.69212437
0.62120265 -0.1857196 0.35919672 0.58233833 -0.5705358 -0.3501913 -0.65114427 0.42055178
-0.1516171 -0.5990187 0.50255513 0.4636138 -0.3636045 0.662282 -0.70003814 0.11567611
-0.11726899 -0.04631705 0.5738381 -0.92109585 0.889666 -0.41325244 -0.6579058 -0.5105306
0.5392349 0.10586168 -0.96559656 0.49367738 -0.09931634 0.5808545 -0.37129623 -0.6864232
0.27956274 -0.16505721 -0.15139015 0.8920691 -0.2236447 0.35586005 0.2783855 0.5713606
-0.6123035 0.6738026 0.67119205 0.44450074 0.46582314 0.28175405 0.42285353 -0.4617341
0.62175953 -0.12588002 0.15471344 0.31927297 0.7199976 -0.4293781 0.53588545 -0.04152029
0.32715568 -0.4879474 -0.75783294 0.19675544 -0.3669222 0.63414395 -0.38780946 -0.5722197
-0.73677737 -0.69210637 0.5065375 0.577672 0.6444331 0.6019877 0.5739827 -0.24226311
-0.23284501 0.5865947 0.78476036 0.31855965 0.6527088 -0.61517763 -0.38267338 0.76902086
00000000: 448d 87be 89f5 f33b effa b5bd 6a16 ea3c
00000010: 94c7 393e 27e8 b23e e0bb 283f ff3c 13bf
00000020: e181 3a3f c12a 893e 3671 213e eae4 f43d
00000030: d31b 083f 13b6 363f a130 98be c40b f13d
00000040: cfd3 98be ccd3 f23e 0167 583e cf01 8dbf
00000050: e10b ec3e 4269 3f3f 470c 123f 309f a63e
00000060: 8518 8ebc 5796 97be de66 dfbd 2da1 e5be
00000070: b822 e5be a0e5 12bf 3992 febb c5ce 13bf
00000080: 582e f4be 32b0 2d3f e03f 163f 5ed7 b2bd
00000090: 4ce7 5e3e a6e9 103f d0f2 4dbf 09c5 35bf
000000a0: 34df c83e e35b 163e 270c 553f 2c87 103f
000000b0: 6d1c 97bd b76e acbd 7dbc 483f 8d4f c8be
000000c0: d9e8 883e 22b6 d2be 2e9f 37bf 5963 b33e
000000d0: 904d b03e 8edb ca3e 457e 1c3f d8b8 dbbe
000000e0: a5c1 90bf 4b64 fc3e 1352 87be 8f3c 243f
000000f0: 0680 f63e 08f4 b2be 4c79 21bd 36da 09be
00000100: 076a 0fbf d66e 14bf 5d8a 1b3f 6863 0b3e
00000110: e161 a8be 2e74 243f eaf2 2c3f 1302 09bf
00000120: 7fb4 11bf c045 1bbf 310b 333f 374e 413f
00000130: 7dc6 653e 4bb4 0a3f d8cb 92bf ae72 e63e
00000140: ab8f acbe 03b6 283e 3676 26bf 18a7 bf3e
00000150: dbde 1b3f 40b8 dcbe 3043 103f dc95 e1be
00000160: fecd f13e 274a cfbe 37dc ea3e 1a1f f93e
00000170: 2227 063f 842a d03e 0425 3cbf a191 dfbe
00000180: dba7 f33e d6b4 62be 4021 1ebe 2b00 20be
00000190: e156 eabd 79af eb3e 1ae0 2bbf ced0 20bf
000001a0: 8a82 00bf 5d6e 173f 1fda 81be 3ad1 09bf
000001b0: 26df 493e 22b5 55be 46d4 acbe 4748 2ebf
000001c0: ee9a 833f 9faa 4abd a354 403f 515c 0ebf
000001d0: ae72 2c3f 145c cd3e a643 e23d 5055 a3be
000001e0: 03b3 d83e 62dc cf3e 9483 86be 6048 dbbe
000001f0: 8b29 e2be 6740 b13e 8ce0 f83e a550 2dbe
00000200: 0030 083f 0bf6 aabd 63a2 e53d 9ec0 08bf
00000210: 6a90 d13e 544f b13e e0e5 283e cdbb f13e
00000220: 49c5 54be fbe6 d43e 27fa d6be 77b0 d2be
00000230: 95a6 9ebe 7538 0cbe 633c febd a1fa 3ebe
00000240: dc9c 1a3f de53 383f ae47 623f 141f 993e
00000250: 9520 49bf 74a5 e03e f7d1 21bf 58cb d83e
00000260: 2b87 edbe 7ed3 0e3f 7dbf 38be 55dd 29bf
00000270: f379 11bf 5a0e 14bf 50d1 143f 26cb fd3e
00000280: c0e7 b7be e75f e4be bd3a c43e 1389 f43e
00000290: 7376 ef3e db66 ebbe b834 f8bd 2bd9 08bf
000002a0: 03d0 35bf 7b00 d2be e88a 34be 04cf 12bf
000002b0: 0e55 903f 6fe6 10bc ac29 053f 102f 31bf
000002c0: 2307 1f3f 472d 3ebe a2e8 b73e 2014 153f
000002d0: a20e 12bf 464c b3be 64b1 26bf 9052 d73e
000002e0: 8341 1bbe 4a59 19bf 74a7 003f ca5e ed3e
000002f0: 5e2a babe 508b 293f b335 33bf 99e7 ec3d
00000300: b92a f0bd f2b6 3dbd 0ee7 123f f0cc 6bbf
00000310: 27c1 633f d395 d3be 846c 28bf 22b2 02bf
00000320: 4c0b 0a3f 02ce d83d 5631 77bf 48c3 fc3e
00000330: 5e66 cbbd e1b2 143f 8a1a bebe 6eb9 2fbf
00000340: d922 8f3e c204 29be 0506 1bbe a45e 643f
00000350: 1e03 65be 4a33 b63e 8b88 8e3e b044 123f
00000360: ecbf 1cbf 547e 2c3f 3ed3 2b3f 9a95 e33e
00000370: 5f80 ee3e 1142 903e 4280 d83e 6968 ecbe
00000380: a22b 1f3f b1e6 00be 336d 1e3e bf77 a33e
00000390: c351 383f 72d7 dbbe ca2f 093f 2e11 2abd
000003a0: f380 a73e 3ed4 f9be 5701 42bf 427a 493e
000003b0: 3add bbbe 4257 223f f68e c6be fe7c 12bf
000003c0: 719d 3cbf e22d 31bf 71ac 013f 50e2 133f
000003d0: 91f9 243f de1b 1a3f 88f0 123f d213 78be
000003e0: ec6e 6ebe 122b 163f 0ee6 483f 401a a33e
000003f0: ed17 273f 487c 1dbf c4ed c3be 8dde 443f

fc3.bias f4 [10]
-0.58655405 -0.42806843 -0.49678797 -0.5371503 -0.5865052 -0.489127 -0.5870249 -0.6486745
-0.63354486 -0.5810596
00000000: 6828 16bf c92b dbbe fe5a febe af82 09bf
00000010: 3425 16bf db6e fabe 4447 16bf 880f 26bf
00000020: ff2f 22bf 52c0 14bf
